tests/app/services/model_install/test_model_install/test_embedding.safetensors (safetensors, 15440 bytes, 1 tensors)

emb_params f4 [5, 768]
00000000: 0080 98bb 0000 c93b 0000 063b 0060 dbba
00000010: 00e0 8cbb 0040 49bc 00e0 093c 0040 ca3b
00000020: 00a0 3fbb 00e0 b33c 0000 1c3c 0020 e7bb
00000030: 0020 643c 00a0 103c 0040 6dbb 0040 253c
00000040: 0040 a6bb 0060 943c 0020 8b3c 0000 1939
00000050: 00c0 dd3c 0000 a63a 0000 0bbd 0040 49bc
00000060: 0020 213b 0000 74b9 0000 babb 0000 2d3c
00000070: 00a0 69bc 0020 b83a 0000 6dbb 0080 0cbd
00000080: 0000 11bb 0000 28bc 0020 693b 0000 58bb
00000090: 00a0 0b3c 0060 22bc 0000 c93c 00c0 053b
000000a0: 00e0 1e3c 0020 6f3a 0000 d6bb 0080 4abc
000000b0: 00c0 5c3c 0000 aebb 0080 dabb 00a0 553c
000000c0: 0060 9ebb 0000 72bc 0020 b6ba 00c0 a3bc
000000d0: 0020 393c 00c0 1c3b 0060 813c 0000 e1bc
000000e0: 0060 bcbc 00c0 513c 0040 62ba 00c0 d1bc
000000f0: 0020 a23c 0020 ad3c 00e0 a73c 00e0 09bc
00000100: 0060 99bc 00e0 1b3c 0020 fcba 00c0 463b
00000110: 0080 b9bc 0060 83bc 0000 473c 00c0 173c
00000120: 0080 093d 0020 f23b 0020 093d 0000 cc37
00000130: 0060 45bc 00c0 51bb 0040 f3bc 0020 3c3c
00000140: 00c0 fb3b 00c0 44bc 00a0 d9ba 0040 9c3c
00000150: 0000 02b9 0060 f5bb 0020 773c 00e0 c53b
00000160: 00e0 99ba 0080 39bc 0060 913c 0060 93bc
00000170: 00a0 2ebc 0040 2f3b 0080 473c 00e0 003c
00000180: 0080 f43b 0020 50bc 0080 44bc 00c0 27bc
00000190: 00e0 763c 00e0 733c 0040 0c3c 0040 24bb
000001a0: 0040 a93b 0000 54bc 0020 843c 0080 663a
000001b0: 00c0 b4bc 0080 953c 0040 b03b 0080 22bc
000001c0: 0000 543b 0020 a2bb 0040 56bb 00c0 583c
000001d0: 0000 483a 0060 2b3a 00a0 303d 0020 f93b
000001e0: 00c0 963c 0060 a0bc 0020 443c 00e0 c5bb
000001f0: 0040 a439 0040 99bc 0020 3f3c 00e0 533a
00000200: 00c0 d7ba 0040 99bc 0040 aabb 0000 a03a
00000210: 00c0 1f3b 00e0 b23c 0020 cbbb 00c0 b9bb
00000220: 0080 ab3a 00e0 8abc 0040 62bc 00e0 e8bb
00000230: 0060 2ebc 0000 5cbc 0060 dabb 00e0 f63b
00000240: 0040 883a 0060 02bd 0020 bbbc 0080 113b
00000250: 0080 7b3c 00a0 293c 0060 83bc 0080 883c
00000260: 0080 82bc 00e0 5fbc 00c0 9fbc 00e0 6d3c
00000270: 0080 033d 00a0 853c 0080 e53b 00c0 0abb
00000280: 00c0 44bb 0040 d43b 0000 fbbc 0040 e4bb
00000290: 0080 123b 0040 ceb9 00a0 21bc 00c0 57bc
000002a0: 0060 22bc 00c0 94bb 0000 52bc 0060 8d3c
000002b0: 0020 c33b 0020 713c 00c0 cbbb 0040 87bc
000002c0: 00e0 583a 0080 7e3c 0020 193c 00a0 703c
000002d0: 00e0 793c 00a0 693c 0000 a5bb 00a0 813b
000002e0: 0000 7fbc 0040 37bb 0000 303c 0060 ed3c
000002f0: 0020 513a 00a0 023c 0080 9abb 00a0 683c
00000300: 0040 d2bb 0040 8d3c 0020 1dbc 0040 883b
00000310: 0020 893c 0080 adbc 0020 293c 00c0 193c
00000320: 0040 a83c 00c0 b53c 0020 d53a 0000 d5bb
00000330: 0020 543b 0040 1bbb 0020 263c 0020 813b
00000340: 0060 07bc 0000 4dbb 0060 f4bc 0080 b33c
00000350: 0020 463c 0000 a03b 00a0 ebbb 00c0 6fbb
00000360: 0020 2e3a 0060 693b 00e0 7e3c 0000 703c
00000370: 00a0 11bb 0000 96bc 0080 d8bb 0020 313c
00000380: 00a0 52bb 00c0 52bb 00e0 63bc 0000 3b3b
00000390: 00c0 09bb 0080 ac3c 0060 133d 00c0 813c
000003a0: 00c0 6ebb 0000 263b 0020 073d 00e0 233c
000003b0: 0080 903a 0060 aabc 00c0 22bb 0020 86bb
000003c0: 00e0 3cbc 0020 ee3a 0000 223c 0080 9f3b
000003d0: 00a0 5dbb 0020 893c 0020 ee3c 0080 d43b
000003e0: 0000 d238 00a0 023c 0020 4dbc 00c0 50bc
000003f0: 0040 5dbc 00c0 6c3b 0020 383c 0060 1d3c
-0.0046539307 0.006134033 0.0020446777 -0.0016736984 -0.004299164 -0.012283325 0.008415222 0.00617218
-0.0029239655 0.021957397 0.009521484 -0.0070533752 0.013923645 0.0088272095 -0.0036201477 0.01008606
-0.0050735474 0.018112183 0.016983032 0.00014591217 0.027069092 0.0012664795 -0.033935547 -0.012283325
0.0024585724 -0.00023269653 -0.0056762695 0.010559082 -0.014259338 0.0014047623 -0.003616333 -0.034301758
-0.0022125244 -0.010253906 0.0035572052 -0.0032958984 0.008522034 -0.0099105835 0.024536133 0.002040863
0.00969696 0.0009121895 -0.0065307617 -0.012359619 0.013473511 -0.0053100586 -0.006668091 0.013038635
-0.0048332214 -0.014770508 -0.0013895035 -0.019989014 0.011299133 0.0023918152 0.015792847 -0.02746582
-0.022994995 0.012802124 -0.00086307526 -0.025604248 0.01979065 0.021133423 0.020492554 -0.008415222
-0.018722534 0.009513855 -0.0019235611 0.0030326843 -0.022644043 -0.016036987 0.012145996 0.009262085
0.033569336 0.0073890686 0.033477783 2.4318695e-05 -0.012046814 -0.003200531 -0.029693604 0.011482239
0.0076828003 -0.012008667 -0.001660347 0.019073486 -0.00012397766 -0.0074882507 0.015083313 0.006038666
-0.0011739731 -0.0113220215 0.017745972 -0.017990112 -0.010658264 0.0026741028 0.012176514 0.007865906
0.007461548 -0.012702942 -0.011993408 -0.010238647 0.015068054 0.014884949 0.008560181 -0.002506256
0.0051651 -0.012939453 0.01612854 0.0008792877 -0.022064209 0.018249512 0.005378723 -0.009918213
0.0032348633 -0.0049476624 -0.0032691956 0.01322937 0.00076293945 0.00065374374 0.043121338 0.0076026917
0.0184021 -0.019577026 0.01197052 -0.006038666 0.000313282 -0.018707275 0.011665344 0.000808239
-0.0016460419 -0.018707275 -0.0051956177 0.0012207031 0.0024375916 0.021835327 -0.006198883 -0.00566864
0.0013084412 -0.016952515 -0.013809204 -0.007106781 -0.010643005 -0.013427734 -0.006664276 0.007534027
0.001039505 -0.031829834 -0.022842407 0.0022201538 0.015350342 0.010353088 -0.016036987 0.016662598
-0.015930176 -0.013664246 -0.019500732 0.014518738 0.032104492 0.016311646 0.007003784 -0.002117157
-0.0030021667 0.006477356 -0.030639648 -0.006965637 0.0022354126 -0.00039339066 -0.009864807 -0.013168335
-0.0099105835 -0.0045394897 -0.012817383 0.01725769 0.0059547424 0.014717102 -0.0062179565 -0.01651001
0.00082731247 0.015533447 0.009346008 0.0146865845 0.01525116 0.014259338 -0.0050354004 0.003955841
-0.015563965 -0.002796173 0.0107421875 0.02897644 0.00079774857 0.007972717 -0.004714966 0.014198303
-0.006416321 0.017242432 -0.009590149 0.00415802 0.016738892 -0.0211792 0.010322571 0.009384155
0.02053833 0.02218628 0.0016260147 -0.006500244 0.0032367706 -0.002368927 0.010139465 0.0039405823
-0.008262634 -0.0031280518 -0.029830933 0.021911621 0.01209259 0.0048828125 -0.0071907043 -0.0036582947
0.00066423416 0.00356102 0.015556335 0.0146484375 -0.0022220612 -0.018310547 -0.0066070557 0.010810852
-0.0032138824 -0.0032157898 -0.013908386 0.0028533936 -0.0021018982 0.021057129 0.035980225 0.015838623
-0.003643036 0.002532959 0.032989502 0.010002136 0.0011024475 -0.02079773 -0.002483368 -0.00409317
-0.011528015 0.0018167496 0.009887695 0.0048675537 -0.0033817291 0.016738892 0.029067993 0.0064849854
0.0001001358 0.007972717 -0.012519836 -0.012741089 -0.013504028 0.0036125183 0.011238098 0.009605408
